…
t/train\n",
      "Downloading https://ultralytics.com/assets/Arial.ttf to '/root/.config/Ultralytics/Arial.ttf'...\n"
     ]
    },
    {
     "name": "stderr",
     "output_type": "stream",
     "text": [
      "100%|██████████| 755k/755k [00:00<00:00, 18.7MB/s]\n"
     ]
    },
    {
     "name": "stdout",
     "output_type": "stream",
     "text": [
      "Overriding model.yaml nc=80 with nc=40\n",
      "\n",
      "                   from  n    params  module                                       arguments                     \n",
      "  0                  -1  1       464  ultralytics.nn.modules.conv.Conv             [3, 16, 3, 2]                 \n",
      "  1                  -1  1      4672  ultralytics.nn.modules.conv.Conv             [16, 32, 3, 2]                \n",
      "  2                  -1  1      6640  ultralytics.nn.modules.block.C3k2            [32, 64, 1, False, 0.25]      \n",
      "  3                  -1  1     36992  ultralytics.nn.modules.conv.Conv             [64, 64, 3, 2]                \n",
      "  4                  -1  1     26080  ultralytics.nn.modules.block.C3k2            [64, 128, 1, False, 0.25]     \n",
      "  5                  -1  1    147712  ultralytics.nn.modules.conv.Conv             [128, 128, 3, 2]              \n",
      "  6                  -1  1     87040  ultralytics.nn.modules.block.C3k2            [128, 128, 1, True]           \n",
      "  7                  -1  1    295424  ultralytics.nn.modules.conv.Conv             [128, 256, 3, 2]              \n",
      "  8                  -1  1    346112  ultralytics.nn.modules.block.C3k2            [256, 256, 1, True]           \n",
      "  9                  -1  1    164608  ultralytics.nn.modules.block.SPPF            [256, 256, 5]                 \n",
      " 10                  -1  1    249728  ultralytics.nn.modules.block.C2PSA           [256, 256, 1]                 \n",
      " 11                  -1  1         0  torch.nn.modules.upsampling.Upsample         [None, 2, 'nearest']          \n",
      " 12             [-1, 6]  1         0  ultralytics.nn.modules.conv.Concat           [1]                           \n",
      " 13                  -1  1    111296  ultralytics.nn.modules.block.C3k2            [384, 128, 1, False]          \n",
      " 14                  -1  1         0  torch.nn.modules.upsampling.Upsample         [None, 2, 'nearest']          \n",
      " 15             [-1, 4]  1         0  ultralytics.nn.modules.conv.Concat           [1]                           \n",
      " 16                  -1  1     32096  ultralytics.nn.modules.block.C3k2            [256, 64, 1, False]           \n",
      " 17                  -1  1     36992  ultralytics.nn.modules.conv.Conv             [64, 64, 3, 2]                \n",
      " 18            [-1, 13]  1         0  ultralytics.nn.modules.conv.Concat           [1]                           \n",
      " 19                  -1  1     86720  ultralytics.nn.modules.block.C3k2            [192, 128, 1, False]          \n",
      " 20                  -1  1    147712  ultralytics.nn.modules.conv.Conv             [128, 128, 3, 2]              \n",
      " 21            [-1, 10]  1         0  ultralytics.nn.modules.conv.Concat           [1]                           \n",
      " 22                  -1  1    378880  ultralytics.nn.modules.block.C3k2            [384, 256, 1, True]           \n",
      " 23        [16, 19, 22]  1    438472  ultralytics.nn.modules.head.Detect           [40, [64, 128, 256]]          \n",
      "YOLO11n summary: 181 layers, 2,597,640 parameters, 2,597,624 gradients, 6.5 GFLOPs\n",
      "\n",
      "Transferred 448/499 items from pretrained weights\n",
      "\u001b[34m\u001b[1mTensorBoard: \u001b[0mStart with 'tensorboard --logdir runs/detect/train', view at http://localhost:6006/\n",
      "Freezing layer 'model.23.dfl.conv.weight'\n",
      "\u001b[34m\u001b[1mAMP: \u001b[0mrunning Automatic Mixed Precision (AMP) checks...\n",
…
